{
	"format": "layers-model",
	"generatedBy": "keras v2.2.5",
	"convertedBy": "TensorFlow.js Converter v1.3.2",
	"modelTopology": {
		"keras_version": "2.2.5",
		"backend": "tensorflow",
		"model_config": {
			"class_name": "Sequential",
			"config": {
				"name": "sequential_2",
				"layers": [
					{
						"class_name": "Conv2D",
						"config": {
							"name": "conv2d_3",
							"trainable": true,
							"batch_input_shape": [ null, 175, 175, 3 ],
							"dtype": "float32",
							"filters": 32,
							"kernel_size": [ 3, 3 ],
							"strides": [ 1, 1 ],
							"padding": "same",
							"data_format": "channels_last",
							"dilation_rate": [ 1, 1 ],
							"activation": "relu",
							"use_bias": true,
							"kernel_initializer": {
								"class_name": "VarianceScaling",
								"config": { "scale": 1.0, "mode": "fan_avg", "distribution": "uniform", "seed": null }
							},
							"bias_initializer": { "class_name": "Zeros", "config": {} },
							"kernel_regularizer": null,
							"bias_regularizer": null,
							"activity_regularizer": null,
							"kernel_constraint": null,
							"bias_constraint": null
						}
					},
					{
						"class_name": "MaxPooling2D",
						"config": {
							"name": "max_pooling2d_3",
							"trainable": true,
							"dtype": "float32",
							"pool_size": [ 2, 2 ],
							"padding": "valid",
							"strides": [ 2, 2 ],
							"data_format": "channels_last"
						}
					},
					{
						"class_name": "Conv2D",
						"config": {
							"name": "conv2d_4",
							"trainable": true,
							"dtype": "float32",
							"filters": 64,
							"kernel_size": [ 3, 3 ],
							"strides": [ 1, 1 ],
							"padding": "valid",
							"data_format": "channels_last",
							"dilation_rate": [ 1, 1 ],
							"activation": "relu",
							"use_bias": true,
							"kernel_initializer": {
								"class_name": "VarianceScaling",
								"config": { "scale": 1.0, "mode": "fan_avg", "distribution": "uniform", "seed": null }
							},
							"bias_initializer": { "class_name": "Zeros", "config": {} },
							"kernel_regularizer": null,
							"bias_regularizer": null,
							"activity_regularizer": null,
							"kernel_constraint": null,
							"bias_constraint": null
						}
					},
					{
						"class_name": "MaxPooling2D",
						"config": {
							"name": "max_pooling2d_4",
							"trainable": true,
							"dtype": "float32",
							"pool_size": [ 2, 2 ],
							"padding": "valid",
							"strides": [ 2, 2 ],
							"data_format": "channels_last"
						}
					},
					{
						"class_name": "Conv2D",
						"config": {
							"name": "conv2d_5",
							"trainable": true,
							"dtype": "float32",
							"filters": 128,
							"kernel_size": [ 3, 3 ],
							"strides": [ 1, 1 ],
							"padding": "valid",
							"data_format": "channels_last",
							"dilation_rate": [ 1, 1 ],
							"activation": "relu",
							"use_bias": true,
							"kernel_initializer": {
								"class_name": "VarianceScaling",
								"config": { "scale": 1.0, "mode": "fan_avg", "distribution": "uniform", "seed": null }
							},
							"bias_initializer": { "class_name": "Zeros", "config": {} },
							"kernel_regularizer": null,
							"bias_regularizer": null,
							"activity_regularizer": null,
							"kernel_constraint": null,
							"bias_constraint": null
						}
					},
					{
						"class_name": "MaxPooling2D",
						"config": {
							"name": "max_pooling2d_5",
							"trainable": true,
							"dtype": "float32",
							"pool_size": [ 2, 2 ],
							"padding": "valid",
							"strides": [ 2, 2 ],
							"data_format": "channels_last"
						}
					},
					{
						"class_name": "Conv2D",
						"config": {
							"name": "conv2d_6",
							"trainable": true,
							"dtype": "float32",
							"filters": 128,
							"kernel_size": [ 3, 3 ],
							"strides": [ 1, 1 ],
							"padding": "valid",
							"data_format": "channels_last",
							"dilation_rate": [ 1, 1 ],
							"activation": "relu",
							"use_bias": true,
							"kernel_initializer": {
								"class_name": "VarianceScaling",
								"config": { "scale": 1.0, "mode": "fan_avg", "distribution": "uniform", "seed": null }
							},
							"bias_initializer": { "class_name": "Zeros", "config": {} },
							"kernel_regularizer": null,
							"bias_regularizer": null,
							"activity_regularizer": null,
							"kernel_constraint": null,
							"bias_constraint": null
						}
					},
					{
						"class_name": "MaxPooling2D",
						"config": {
							"name": "max_pooling2d_6",
							"trainable": true,
							"dtype": "float32",
							"pool_size": [ 2, 2 ],
							"padding": "valid",
							"strides": [ 2, 2 ],
							"data_format": "channels_last"
						}
					},
					{
						"class_name": "Flatten",
						"config": {
							"name": "flatten_2",
							"trainable": true,
							"dtype": "float32",
							"data_format": "channels_last"
						}
					},
					{
						"class_name": "Dropout",
						"config": {
							"name": "dropout_2",
							"trainable": true,
							"dtype": "float32",
							"rate": 0.5,
							"noise_shape": null,
							"seed": null
						}
					},
					{
						"class_name": "Dense",
						"config": {
							"name": "dense_3",
							"trainable": true,
							"dtype": "float32",
							"units": 512,
							"activation": "relu",
							"use_bias": true,
							"kernel_initializer": {
								"class_name": "VarianceScaling",
								"config": { "scale": 1.0, "mode": "fan_avg", "distribution": "uniform", "seed": null }
							},
							"bias_initializer": { "class_name": "Zeros", "config": {} },
							"kernel_regularizer": null,
							"bias_regularizer": null,
							"activity_regularizer": null,
							"kernel_constraint": null,
							"bias_constraint": null
						}
					},
					{
						"class_name": "Dense",
						"config": {
							"name": "dense_4",
							"trainable": true,
							"dtype": "float32",
							"units": 5,
							"activation": "sigmoid",
							"use_bias": true,
							"kernel_initializer": {
								"class_name": "VarianceScaling",
								"config": { "scale": 1.0, "mode": "fan_avg", "distribution": "uniform", "seed": null }
							},
							"bias_initializer": { "class_name": "Zeros", "config": {} },
							"kernel_regularizer": null,
							"bias_regularizer": null,
							"activity_regularizer": null,
							"kernel_constraint": null,
							"bias_constraint": null
						}
					}
				]
			}
		},
		"training_config": {
			"optimizer_config": {
				"class_name": "Adam",
				"config": {
					"lr": 0.0010000000474974513,
					"beta_1": 0.8999999761581421,
					"beta_2": 0.9990000128746033,
					"decay": 0.0,
					"epsilon": 1e-7,
					"amsgrad": false
				}
			},
			"loss": "sparse_categorical_crossentropy",
			"metrics": [ "accuracy" ],
			"weighted_metrics": null,
			"sample_weight_mode": null,
			"loss_weights": null
		}
	},
	"weightsManifest": [
		{
			"paths": [
				"group1-shard1of6.bin",
				"group1-shard2of6.bin",
				"group1-shard3of6.bin",
				"group1-shard4of6.bin",
				"group1-shard5of6.bin",
				"group1-shard6of6.bin"
			],
			"weights": [
				{ "name": "conv2d_3/kernel", "shape": [ 3, 3, 3, 32 ], "dtype": "float32" },
				{ "name": "conv2d_3/bias", "shape": [ 32 ], "dtype": "float32" },
				{ "name": "conv2d_4/kernel", "shape": [ 3, 3, 32, 64 ], "dtype": "float32" },
				{ "name": "conv2d_4/bias", "shape": [ 64 ], "dtype": "float32" },
				{ "name": "conv2d_5/kernel", "shape": [ 3, 3, 64, 128 ], "dtype": "float32" },
				{ "name": "conv2d_5/bias", "shape": [ 128 ], "dtype": "float32" },
				{ "name": "conv2d_6/kernel", "shape": [ 3, 3, 128, 128 ], "dtype": "float32" },
				{ "name": "conv2d_6/bias", "shape": [ 128 ], "dtype": "float32" },
				{ "name": "dense_3/kernel", "shape": [ 10368, 512 ], "dtype": "float32" },
				{ "name": "dense_3/bias", "shape": [ 512 ], "dtype": "float32" },
				{ "name": "dense_4/kernel", "shape": [ 512, 5 ], "dtype": "float32" },
				{ "name": "dense_4/bias", "shape": [ 5 ], "dtype": "float32" }
			]
		}
	]
}
